android/app/src/main/assets/models/wake_word/wake_word_model.tflite (tflite, 19304 bytes, 8 tensors)

sequential/dense_3/MatMul f4 [3, 32]
00000000: a095 ec3a a4d2 06bd 07f0 5e3e 5a5d b93e
00000010: 862d a9bc f2e2 a93e 362a 933e 34a0 3a3e
00000020: f10d 98be 659d 63be 0ed4 373e 8799 5cbe
00000030: ea71 38be 1d20 d03e e8da 363e 0f82 5abe
00000040: 4b76 b13e 9f26 9f3c 348f 48be 425c af3e
00000050: dfaf 8f3e 2bdc 573e 86a5 87bd 1094 fb3d
00000060: 770c 773d 3500 2dbe 0eea 53be 1e8a 93bc
00000070: 0fcc 633e 3647 fdbd f6cc 35be e9e8 2e3e
00000080: 71c3 b03c 6432 b63d 57e7 da3c c1d2 7e3e
00000090: 30b4 84be 9a47 cabe c74b 573e 0e91 5abe
000000a0: 5970 883e 8593 35be 8ea5 613e 592f b43e
000000b0: 3cca 1d3e d861 c7bd 2c10 0cbe b2ab b83e
000000c0: 83ef 043e 61cd e2bd 9197 d63e 31e0 90be
000000d0: e3e1 9bbe 5072 bb3d 46e5 a5be da36 f0bd
000000e0: ccd8 b93e b629 813e ddbf 193e 9208 0ebd
000000f0: a8b6 a43d 45f4 c53d 80f5 653e c2ec 9f3e
00000100: 50f1 783d 8663 993c 22b5 f9bd 5969 eabd
00000110: edab b7be c8b9 1ebe 3e1a 5fbe b3a4 eb3d
00000120: 495d cbbd 5910 cc3e 6dbf b5be bdfe be3d
00000130: e0c9 4b3e ac87 0bbe 73a7 5dbe d9b5 d4be
00000140: 34a3 a5bc 1128 bbbe 83a5 8dbe 8bac 783e
00000150: bf7a 69be 5f63 9c3e c764 163e d7d7 8cbe
00000160: 66c2 89be 3693 af3e 0570 04be cad0 e43d
00000170: aee0 e43b 6234 903e a466 583e 5c95 34be
0.0018049963 -0.032915726 0.2177125 0.36204034 -0.02065159 0.33180958 0.28743142 0.18225175
-0.29698136 -0.2222801 0.17951986 -0.21542941 -0.18012205 0.406495 0.17856944 -0.21338676
0.34660563 0.019427596 -0.19585878 0.34250075 0.28063866 0.21080081 -0.06623368 0.122841
0.06031462 -0.1689461 -0.20694754 -0.018010195 0.22245811 -0.12367098 -0.17753968 0.17081036
0.021577569 0.0889633 0.02672164 0.24885084 -0.25918722 -0.39507753 0.21025 -0.21344396
0.26648214 -0.17732055 0.2203581 0.35192373 0.15409178 -0.09735459 -0.13678044 0.36068493
0.12981991 -0.11074329 0.4191251 -0.28296044 -0.30445775 0.09152663 -0.32401484 -0.11729212
0.36298215 0.25227135 0.15014596 -0.034676142 0.080426514 0.09665731 0.22456932 0.3123532
0.06077701 0.018724214 -0.121927515 -0.11445875 -0.35873356 -0.15500557 -0.21787354 0.11506023
-0.09929902 0.39856222 -0.3549761 0.09325931 0.19901228 -0.13625973 -0.21645908 -0.4154499
-0.020219423 -0.36554006 -0.27665338 0.2428457 -0.2280073 0.30544564 0.14686881 -0.27508423
-0.26906127 0.34292 -0.12933357 0.11172636 0.0069847917 0.28164965 0.21132904 -0.17635101

sequential/dense_1/BiasAdd/ReadVariableOp f4 [64]
00000000: ea9e d23b 63a0 083d 833f 56bc 1854 4abc
00000010: 60ea 4c3c 5889 3a3a 3e98 273b 2e13 073c
00000020: aa50 623c bf0b afbb faec 723b 6f3a 803c
00000030: dd60 553c 1243 113c 9e48 5dbc 96a0 03bc
00000040: f99a 4c3c a244 a8bb 7d69 04bc 26fe 1abb
00000050: 3a0f 01bc c9fc 0c3c 7261 35bc 99cd 0a3d
00000060: 70bc 05bb d03d 083c 8bc8 ce3c f4de bf3b
00000070: fcab ca3c 8c24 9b3b 87e9 a8bb 5807 233c
00000080: 0d3a 9c3b b312 bf3c 6160 653b d0d4 de3a
00000090: 17f1 f53c 9263 503c 9a2a f23c 1588 363c
000000a0: c0e2 08bc 6d30 bc3a e35a 96ba 2aaa 6fba
000000b0: 2c9d 82bb a2c3 4abc 8f49 0f3d 35e4 f73c
000000c0: 1d1a f03b 5c1f d6bc 3ee3 a7bb 10de bf3c
000000d0: 9aee 97bb 0be7 fdbb 5b80 253a d2f4 973c
000000e0: 612f b63b 4a2f e03a 3c43 ecbb d252 03bb
000000f0: 2f15 693c e0ac 36bb 7c71 70bc baaa e6bb
0.0064276354 0.03335608 -0.013076666 -0.012349151 0.012507051 0.0007115803 0.002557292 0.008244319
0.013813177 -0.0053419764 0.0037067519 0.015652863 0.013023582 0.008866088 -0.013506083 -0.008033892
0.01248812 -0.005135135 -0.008081791 -0.002365002 -0.007877165 0.008605191 -0.011070596 0.03388748
-0.0020406507 0.0083155185 0.02524211 0.0058554355 0.024740212 0.0047345813 -0.0051547918 0.009950481
0.0047676624 0.023324346 0.0035000073 0.0017000679 0.030022187 0.012719052 0.02956133 0.011140843
-0.008354843 0.0014357694 -0.0011471178 -0.0009142483 -0.0039860215 -0.012375744 0.03498226 0.030260185
0.0073273317 -0.026138 -0.005123525 0.023421317 -0.004636598 -0.0077484897 0.0006313377 0.018549357
0.005559847 0.0017103937 -0.0072101634 -0.0020038378 0.014226242 -0.0027874038 -0.014675494 -0.007039395

sequential/dense_2/BiasAdd/ReadVariableOp f4 [32]
00000000: 3068 dabc 5465 853c 6dcc a9bc e7f3 5f3c
00000010: c077 acbb 4054 de3b d5be 39bc eefb fd3a
00000020: 5498 813c c837 ae3c 8401 61bc e5a5 26bc
00000030: 267b 203d e288 b53b 5ee9 4b3c a711 ab3c
00000040: 6f1d 303c 4ea2 483c a241 a43b ae21 44bc
00000050: 7d1f 0f3c 2602 49b9 bd6a 05bc a0a3 a5bc
00000060: a911 7fbc 7d19 7c3c 16aa efbc 594c 1c3c
00000070: aac0 e33c e8da 423c 52fe 963c 1476 0a3c
-0.026661009 0.016283669 -0.02072736 0.013668991 -0.0052632987 0.0067849457 -0.011337002 0.0019377449
0.015819706 0.021266833 -0.0137332715 -0.010171388 0.039179944 0.0055399993 0.012445776 0.02088244
0.010749205 0.012245728 0.005012707 -0.0119709205 0.008735535 -0.00019169654 -0.008143124 -0.020219624
-0.015568175 0.015386936 -0.029255908 0.009539687 0.02780183 0.011893012 0.018431816 0.008451004

sequential/dense_3/BiasAdd/ReadVariableOp f4 [3]
00000000: 7209 2abc 0e42 1e3b 693a 873c
-0.0103782285 0.0024148258 0.016507344

sequential/dense/BiasAdd/ReadVariableOp f4 [128]
00000000: 2469 44bb 0f85 193a 89ca 02bc e52f c83c
00000010: 9f2e c33c 7138 aa3c 1255 553c ca05 5f3b
00000020: 01cb c63c dfeb a43a a748 203d b41f 27bc
00000030: 4269 ecba 04f2 113d 2d41 913c a7a7 513c
00000040: b86e a63a 5c65 e1b9 a586 2b3c d6ae 61bc
00000050: 2e38 d3ba a4f6 1d3c ce99 e9ba e1db b0ba
00000060: 65d2 923b 39c2 c1bb 8eb4 9dbc 6e4c 50bb
00000070: 7ca7 b2bc 8a1b a83b 28f7 9f3c 912e 603c
00000080: cd28 863c fcd0 723c d8a3 7ebb edf5 85bc
00000090: 795f b9bb 25bf 173d ae82 f13c 5ced 42bb
000000a0: 4e2c 98bb 27eb 3a3b ab5a 5c3c 55ff a13b
000000b0: 9a95 8fbb a2ef dabb 8a2e a93b 2fdb 1ebc
000000c0: 77e4 d13c 27b8 203b ccf8 553a 79f0 a73c
000000d0: 0732 bd3c 143d 023c f6ab cebb f500 7e39
000000e0: 634b 6d3c 94ad 8a3a 75f5 003c be2f 893c
000000f0: eeec 17bb b743 1b3d 3e7c 013c 4d63 da3c
00000100: 305a 6c3c e31e d2bb 2508 5a3c 0725 513b
00000110: ee2b 9c3b 41e6 b6b9 0df7 00bb 5879 5e3c
00000120: 8573 013b 655a e03c a43d 4cbc fe44 0abc
00000130: 4ae5 9dbb 5e33 84bb 746b ca3c 8eee 913c
00000140: 1689 aeba 7143 33bc c83a b23b 9979 b13b
00000150: b8fe 0f3d c9e6 c0bb 1f44 093d 7e6b 9e3c
00000160: 9305 27bc c65b 553c cc8c 35bc 2c4f a0bc
00000170: 383d 87b9 a989 52bc 176f 70bb 53d8 0c3c
00000180: f675 933c 1f17 89bc 011f 32bc 5b3f 8ebc
00000190: 3a34 3ebc 924f a83c f682 143c 3c2c 07bb
000001a0: c589 993c 237d 18bc 53b4 493c 88c3 08bc
000001b0: 509e 34bc 4247 58bc 8f04 9ebb e1a5 b63c
000001c0: c672 d2bb 8baf 813b f748 a03c 2865 cd3b
000001d0: 84e4 ca3c 9121 d13c 126b 803b 6a43 a83c
000001e0: c64c 5c3c c80d ebbb 6b00 5cbc 1077 25bc
000001f0: f69c 983c 149c 38bc 93e7 763b 56ab babc
-0.0029969895 0.0005856314 -0.007982858 0.0244369 0.023825942 0.020778866 0.013020771 0.003403055
0.024266722 0.0012582502 0.039131787 -0.01020043 -0.001803674 0.035631195 0.017731274 0.012796319
0.0012697792 -0.00042990863 0.0104691135 -0.013774594 -0.0016114765 0.009641323 -0.0017822327 -0.0013493263
0.0044806474 -0.0059130457 -0.019251134 -0.0031783837 -0.021808378 0.005130236 0.019527033 0.013682977
0.016376877 0.014820334 -0.0038854983 -0.016352618 -0.005657133 0.037047524 0.029481258 -0.0029743528
-0.0046439534 0.002852151 0.013449351 0.004943768 -0.0043818476 -0.0066813985 0.0051630186 -0.009695812
0.025621636 0.0024523826 0.0008162379 0.020500408 0.023095144 0.0079491325 -0.0063071204 0.00024223684
0.014483306 0.0010580295 0.0078710215 0.016746398 -0.0023181993 0.037906375 0.007903157 0.026658678
0.014425799 -0.0064123734 0.013307606 0.003191294 0.004765979 -0.00034885298 -0.0019678504 0.013578735
0.0019752693 0.027386853 -0.012465868 -0.008439301 -0.004818593 -0.0040344438 0.02470944 0.017813947
-0.0013316001 -0.010941372 0.005439136 0.005416107 0.035155028 -0.0058868867 0.03351223 0.019338366
-0.0101942 0.013022369 -0.011080932 -0.019569002 -0.00025794818 -0.012850204 -0.0036687308 0.008596498
0.018000584 -0.016734658 -0.01087165 -0.017364195 -0.0116091315 0.020545755 0.009064427 -0.002062573
0.018742451 -0.009307179 0.012311059 -0.0083473995 -0.011024073 -0.013200583 -0.004822321 0.022295894
-0.0064223735 0.003957694 0.019566042 0.0062681623 0.024767168 0.025528701 0.003919014 0.020539958
0.013446039 -0.0071732737 -0.013427834 -0.0100991875 0.018629532 -0.011267681 0.003767465 -0.022786777

sequential/dense/MatMul i1 [128, 40] scale=0.0017591178 zero_point=0
00000000: 61c4 a6bc d809 b144 a439 df66 c02e 44d8
00000010: 1cc4 649d 6deb 9f28 47b9 bf43 4758 f2bd
00000020: 2db9 e365 36c2 51b6 4c36 ffcd c153 fec0
00000030: de32 60a8 5d5d b8fc 42c0 0ba2 d09e 03c3
00000040: d9f0 9e08 f4eb 4104 ce55 1220 4341 9bfc
00000050: e9b7 0902 27e5 44ff 44a3 bbf8 4da9 aa1c
00000060: c40b 4d5c 66d4 23ee 3e0c ff90 b246 00ef
00000070: a8d3 b4a6 061e b5be 5ca3 381e 582f 94f9
00000080: df4d 5430 11b3 b8c1 d614 be58 d3f1 1e39
00000090: 09f5 c1ea 139c dd4e f34b 3e03 0824 cc2c
000000a0: 188f efd5 fed8 d836 612c 6b38 b630 c7f8
000000b0: 2a3b c90e 2d0e 4c1e 4d9f 38f5 dbcd 67a6
000000c0: 0b2b d6cc 5ac7 5018 a008 f69e e731 5947
000000d0: 3829 4773 56d3 14a8 9f1e 372a d7e6 e563
000000e0: 3940 3fcd 5621 0617 250e a599 3e63 bab3
000000f0: bce3 c48e 94c1 aa05 0b21 4100 25fa 64ce
0.17063443 -0.10554707 -0.1583206 -0.11962001 -0.07036471 0.015832061 -0.1389703 0.11962001
-0.16183884 0.10026971 -0.05805089 0.17943002 -0.11258354 0.08091942 0.11962001 -0.07036471
0.0492553 -0.10554707 0.17591178 -0.17415266 0.19174384 -0.036941472 -0.17063443 0.07036471
0.12489737 -0.12489737 -0.11434266 0.11786089 0.12489737 0.15480237 -0.02462765 -0.11786089
0.0791603 -0.12489737 -0.051014416 0.1776709 0.09499236 -0.1090653 0.14248854 -0.13017471
0.13369295 0.09499236 -0.0017591178 -0.08971501 -0.11082442 0.14600678 -0.0035182356 -0.11258354
-0.059810005 0.08795589 0.1688753 -0.15480237 0.16359796 0.16359796 -0.12665649 -0.0070364713
0.11610178 -0.11258354 0.019350296 -0.16535707 -0.08443765 -0.17239355 0.0052773533 -0.10730619
-0.068605594 -0.028145885 -0.17239355 0.014072943 -0.021109413 -0.036941472 0.11434266 0.0070364713
-0.08795589 0.14952502 0.031664122 0.05629177 0.11786089 0.11434266 -0.1776709 -0.0070364713
-0.04045971 -0.1284156 0.015832061 0.0035182356 0.068605594 -0.04749618 0.11962001 -0.0017591178
0.11962001 -0.16359796 -0.12137913 -0.014072943 0.13545208 -0.15304326 -0.15128413 0.0492553
-0.10554707 0.019350296 0.13545208 0.16183884 0.17943002 -0.07740118 0.061569124 -0.031664122
0.1090653 0.021109413 -0.0017591178 -0.1970212 -0.13721119 0.12313825 0.0 -0.029905003
-0.15480237 -0.0791603 -0.13369295 -0.1583206 0.010554707 0.052773535 -0.13193384 -0.11610178
0.16183884 -0.16359796 0.0985106 0.052773535 0.15480237 0.082678534 -0.18998472 -0.012313825
-0.05805089 0.13545208 0.14776589 0.08443765 0.029905003 -0.13545208 -0.12665649 -0.11082442
-0.073882945 0.035182357 -0.11610178 0.15480237 -0.0791603 -0.026386768 0.052773535 0.10026971
0.015832061 -0.019350296 -0.11082442 -0.03870059 0.033423238 -0.17591178 -0.061569124 0.13721119
-0.02286853 0.13193384 0.1090653 0.0052773533 0.014072943 0.063328244 -0.09147412 0.07740118
0.042218827 -0.19878031 -0.029905003 -0.075642064 -0.0035182356 -0.07036471 -0.07036471 0.09499236
0.17063443 0.07740118 0.18822561 0.0985106 -0.13017471 0.08443765 -0.10026971 -0.014072943
0.073882945 0.10378795 -0.09675148 0.02462765 0.0791603 0.02462765 0.13369295 0.052773535
0.13545208 -0.17063443 0.0985106 -0.019350296 -0.065087356 -0.08971501 0.18118913 -0.1583206
0.019350296 0.075642064 -0.073882945 -0.09147412 0.1583206 -0.10026971 0.14072943 0.042218827
-0.1688753 0.014072943 -0.017591178 -0.17239355 -0.043977946 0.08619677 0.15656148 0.12489737
0.0985106 0.07212383 0.12489737 0.20229855 0.15128413 -0.0791603 0.035182357 -0.15480237
-0.17063443 0.052773535 0.09675148 0.073882945 -0.07212383 -0.04573706 -0.04749618 0.17415266
0.10026971 0.11258354 0.11082442 -0.08971501 0.15128413 0.05805089 0.010554707 0.04045971
0.065087356 0.02462765 -0.16007972 -0.18118913 0.1090653 0.17415266 -0.12313825 -0.13545208
-0.11962001 -0.051014416 -0.10554707 -0.20053943 -0.18998472 -0.11082442 -0.15128413 0.008795589
0.019350296 0.05805089 0.11434266 0.0 0.065087356 -0.010554707 0.17591178 -0.08795589

sequential/dense_1/MatMul i1 [64, 128] scale=0.0016605785 zero_point=0
00000000: 5850 d532 1634 4ee3 50b1 c8de b3b7 f253
00000010: bcde 5dbd 34a8 69bb 99da 4b61 cb1a 0021
00000020: c75c d020 5224 d843 ac3e 1f99 4820 d319
00000030: e013 b948 31f1 70ba de07 1135 520c c3a0
00000040: 0457 c3c9 1868 b603 1f3a bcca 290f 034a
00000050: d301 0bdc 07d5 4344 0dca b20c d1e9 bd09
00000060: 5213 0769 10a6 a0a7 ede7 5606 fc47 b113
00000070: a9f5 0ea0 6b56 e778 a701 62bc 09bd d850
00000080: b9eb 23a7 5c5e 6beb 0bac 1bed 3c53 2b29
00000090: cda7 4ea5 2aef b069 38cd b9ee 2a48 c4a8
000000a0: a89b eaeb adbf 67ed 25d5 b5f5 5401 b9e2
000000b0: 200c ace6 c925 a2f3 14e0 5bcd 312d 5a78
000000c0: c4aa 58f6 c7a4 5e26 d621 b703 66a8 df55
000000d0: 1669 cdff 6b47 0a37 cc10 fdd6 bd60 4969
000000e0: e23c 4338 dcc3 bc1b 6b20 5ad4 6f56 1344
000000f0: c24b f835 55ca ee6a c153 a30c dce0 accc
0.1461309 0.13284628 -0.071404874 0.08302893 0.036532726 0.08635008 0.12952513 -0.04815678
0.13284628 -0.13118571 -0.092992395 -0.05645967 -0.12786455 -0.121222235 -0.023248099 0.13782802
-0.11291934 -0.05645967 0.1544338 -0.11125876 0.08635008 -0.1461309 0.17436075 -0.114579916
-0.1710396 -0.063101985 0.12454339 0.16107611 -0.08801066 0.04317504 0.0 0.05479909
-0.09465297 0.15277323 -0.07970777 0.053138513 0.13616744 0.05978083 -0.06642314 0.11125876
-0.1394886 0.10295587 0.051477935 -0.1710396 0.11956166 0.053138513 -0.07472604 0.041514464
-0.053138513 0.031550992 -0.11790108 0.11956166 0.08136835 -0.024908679 0.18598479 -0.116240494
-0.05645967 0.011624049 0.028229835 0.08801066 0.13616744 0.019926943 -0.10129529 -0.15941554
0.006642314 0.14447033 -0.10129529 -0.09133182 0.039853886 0.17270017 -0.12288281 0.0049817357
0.051477935 0.09631356 -0.11291934 -0.08967124 0.06808372 0.024908679 0.0049817357 0.12288281
-0.07472604 0.0016605785 0.018266363 -0.05978083 0.011624049 -0.071404874 0.11125876 0.11291934
0.02158752 -0.08967124 -0.12952513 0.019926943 -0.07804719 -0.038193308 -0.11125876 0.014945207
0.13616744 0.031550992 0.011624049 0.17436075 0.026569257 -0.14945208 -0.15941554 -0.14779149
-0.031550992 -0.041514464 0.14280975 0.009963471 -0.006642314 0.11790108 -0.13118571 0.031550992
-0.14447033 -0.018266363 0.023248099 -0.15941554 0.17768191 0.14280975 -0.041514464 0.19926943
-0.14779149 0.0016605785 0.1627367 -0.11291934 0.014945207 -0.11125876 -0.06642314 0.13284628
-0.11790108 -0.03487215 0.058120247 -0.14779149 0.15277323 0.15609439 0.17768191 -0.03487215
0.018266363 -0.1394886 0.04483562 -0.031550992 0.099634714 0.13782802 0.071404874 0.06808372
-0.084689505 -0.14779149 0.12952513 -0.15111265 0.0697443 -0.028229835 -0.13284628 0.17436075
0.092992395 -0.084689505 -0.11790108 -0.029890414 0.0697443 0.11956166 -0.099634714 -0.1461309
-0.1461309 -0.16771843 -0.036532726 -0.03487215 -0.13782802 -0.107937604 0.1710396 -0.031550992
0.061441407 -0.071404874 -0.12454339 -0.018266363 0.1394886 0.0016605785 -0.11790108 -0.049817357
0.053138513 0.019926943 -0.1394886 -0.04317504 -0.09133182 0.061441407 -0.15609439 -0.02158752
0.03321157 -0.053138513 0.15111265 -0.084689505 0.08136835 0.07472604 0.14945208 0.19926943
-0.099634714 -0.14280975 0.1461309 -0.016605785 -0.09465297 -0.15277323 0.15609439 0.063101985
-0.0697443 0.05479909 -0.121222235 0.0049817357 0.16937901 -0.1461309 -0.05479909 0.14114918
0.036532726 0.17436075 -0.084689505 -0.0016605785 0.17768191 0.11790108 0.016605785 0.09133182
-0.08635008 0.026569257 -0.0049817357 -0.0697443 -0.11125876 0.15941554 0.121222235 0.17436075
-0.049817357 0.099634714 0.11125876 0.092992395 -0.05978083 -0.10129529 -0.11291934 0.04483562
0.17768191 0.053138513 0.14945208 -0.07306545 0.18432422 0.14280975 0.031550992 0.11291934
-0.10295587 0.12454339 -0.013284628 0.08801066 0.14114918 -0.08967124 -0.029890414 0.17602132
-0.10461645 0.13782802 -0.1544338 0.019926943 -0.05978083 -0.053138513 -0.1394886 -0.08635008

sequential/dense_2/MatMul i1 [32, 64] scale=0.0022606363 zero_point=0
00000000: cb36 1cff a6d7 2398 3164 87ab 32d6 08c1
00000010: 02fa 3d10 06a9 0c05 e136 3d45 230e d2e8
00000020: 6657 dcbc 9fd1 109c 2dc9 0aec c9f1 3138
00000030: 4b58 3953 e69d 7233 ba0e b352 b5df 623e
00000040: 9ee2 3957 5e4e ee5b 5929 0798 d050 5075
00000050: 9e8d 0012 3407 693d 4c6f 0700 37bf 0b20
00000060: c2ee 635c da66 1cb1 aa13 1b18 290c cd96
00000070: b817 f28d ceb7 62fe b037 4902 c3d5 2730
00000080: 0400 c557 3841 bc19 e1a1 509e 23f9 b354
00000090: 0657 1813 a1a7 9014 2c28 0cfe 28d3 e04f
000000a0: 17c2 3a97 0b63 f352 b150 b2b0 c8bc c627
000000b0: e620 0a62 9ac4 420b 3d06 1eca 1b59 d6d4
000000c0: bf7f c8c9 ccc4 f8f8 100d 06cc 9de1 a1de
000000d0: 3ba0 bf09 c177 6c01 1f11 beb3 d4e7 b53d
000000e0: f8c7 d156 1d27 7f67 5d35 c12c cbfe af41
000000f0: e79f 4b12 ded2 aef8 262f ef4c ece4 196d
-0.119813725 0.12207436 0.063297816 -0.0022606363 -0.20345727 -0.09268609 0.07912227 -0.23510617
0.11077118 0.22606362 -0.27353698 -0.19215408 0.11303181 -0.09494673 0.01808509 -0.14242008
0.0045212726 -0.013563817 0.13789882 0.03617018 0.013563817 -0.19667536 0.027127635 0.011303182
-0.07007973 0.12207436 0.13789882 0.15598391 0.07912227 0.031648908 -0.10398927 -0.05425527
0.2305849 0.19667536 -0.08138291 -0.15372327 -0.21928172 -0.106249906 0.03617018 -0.22606362
0.10172863 -0.124335 0.022606364 -0.045212727 -0.124335 -0.033909544 0.11077118 0.12659563
0.16954772 0.198936 0.12885627 0.18763281 -0.058776543 -0.223803 0.25771254 0.11529245
-0.15824454 0.031648908 -0.174069 0.18537217 -0.16954772 -0.074600995 0.22154236 0.14015946
-0.22154236 -0.06781909 0.12885627 0.19667536 0.21249981 0.17632963 -0.040691454 0.2057179
0.20119663 0.09268609 0.015824454 -0.23510617 -0.10851054 0.18085091 0.18085091 0.26449445
-0.22154236 -0.25997317 0.0 0.040691454 0.117553085 0.015824454 0.23736681 0.13789882
0.17180836 0.25093064 0.015824454 0.0 0.124335 -0.14694136 0.024867 0.07234036
-0.14015946 -0.040691454 0.223803 0.20797855 -0.08590418 0.2305849 0.063297816 -0.17859027
-0.19441472 0.04295209 0.06103718 0.05425527 0.09268609 0.027127635 -0.11529245 -0.23962745
-0.16276582 0.051994637 -0.031648908 -0.25997317 -0.11303181 -0.16502646 0.22154236 -0.0045212726
-0.18085091 0.124335 0.16502646 0.0045212726 -0.13789882 -0.09720736 0.088164814 0.10851054
0.009042545 0.0 -0.13337754 0.19667536 0.12659563 0.14694136 -0.15372327 0.056515906
-0.07007973 -0.21476045 0.18085091 -0.22154236 0.07912227 -0.015824454 -0.174069 0.18989345
0.013563817 0.19667536 0.05425527 0.04295209 -0.21476045 -0.20119663 -0.25319126 0.045212727
0.099468 0.090425454 0.027127635 -0.0045212726 0.090425454 -0.10172863 -0.07234036 0.17859027
0.051994637 -0.14015946 0.13111691 -0.23736681 0.024867 0.223803 -0.029388271 0.18537217
-0.17859027 0.18085091 -0.17632963 -0.18085091 -0.12659563 -0.15372327 -0.13111691 0.088164814
-0.058776543 0.07234036 0.022606364 0.22154236 -0.2305849 -0.13563818 0.14920199 0.024867
0.13789882 0.013563817 0.06781909 -0.12207436 0.06103718 0.20119663 -0.09494673 -0.099468
-0.14694136 0.28710082 -0.12659563 -0.124335 -0.117553085 -0.13563818 -0.01808509 -0.01808509
0.03617018 0.029388271 0.013563817 -0.117553085 -0.223803 -0.07007973 -0.21476045 -0.076861635
0.13337754 -0.21702108 -0.14694136 0.020345727 -0.14242008 0.26901573 0.24414872 0.0022606363
0.07007973 0.038430817 -0.14920199 -0.174069 -0.099468 -0.056515906 -0.16954772 0.13789882
-0.01808509 -0.12885627 -0.106249906 0.19441472 0.065558456 0.088164814 0.28710082 0.23284554
0.21023917 0.119813725 -0.14242008 0.099468 -0.119813725 -0.0045212726 -0.18311153 0.14694136
-0.056515906 -0.21928172 0.16954772 0.040691454 -0.076861635 -0.10398927 -0.18537217 -0.01808509
0.08590418 0.106249906 -0.038430817 0.17180836 -0.045212727 -0.063297816 0.056515906 0.24640936
